asl_model.pth (torch, 530925 bytes, 6 tensors)

lstm.weight_ih_l0 f4 [512, 126]
00000000: 2700 0ebc 3545 43bc 6116 3b3c b5a9 053e
00000010: 90ba 043d ac25 eebc c8f0 00bc 6dec 093d
00000020: ff38 b0bc c553 893d 096c 9abd 7bc9 8f3d
00000030: bca1 943d bb00 bbbd dac0 4e3c 27d4 c63c
00000040: bbbd 143d 4b8c b33d 91f4 903d 84d6 6ebd
00000050: 252d 83bd b826 ec3d 3203 ac3d df27 cabd
00000060: 5889 63bc 0ac0 9e3d bd17 9abd 82b2 db3c
00000070: a622 6bbc 72c9 573d 0797 48bb ad24 6a3d
00000080: cfab 8bbd cd0e 76bc 6525 ba3d a7df 47bb
00000090: ac3e 713d b702 3bbd ee53 19bb 3ccc 553d
000000a0: 37a1 93bc 906b edbb 3e2f b23a 9920 613d
000000b0: 5797 c7bd 7bdd 983d 9a09 ab3d 77ab f0bd
000000c0: 133e fb3d 3279 ce3c e037 593d 07b1 3cbc
000000d0: 072b 0fbd 9f56 22bd eafe 893d 1149 03bc
000000e0: 3977 f3bc 3f3b 963d 7d23 3abd 33ba 53bc
000000f0: c45c 0bbc 103a 40bc 6a0c c6bc 2381 8bbc
00000100: 93bf 50bd 507b f93c 65b9 b9bc 6e61 36bc
00000110: e838 bbbb da91 0cbd c8db dd3d b890 963d
00000120: 7fb0 e43d c759 003d 6719 7b3c 5a30 82ba
00000130: 2a6e a33c b34d 7dbd fa7e 913d 819c 013d
00000140: 93f0 02bc a7d8 a03d b597 f8bc 62b7 98bd
00000150: 4fcb c7bc 6f45 ae3d da70 70ba 8592 1a3d
00000160: f540 0e3c afa9 0c3d 7a6c d23c 6a6d d0bc
00000170: 09ae 3bbd 68a0 3f3d 386f 483c a4be c2bd
00000180: d2ee 143d 2de1 f83c 7a1d 05bd 2d4f 65bc
00000190: 67df ca3d 13c6 773c cb34 a93d f2b2 9c3d
000001a0: 8515 62bd bd25 aebc 1498 363d 7758 823d
000001b0: 9653 2f3c 96ed 943d 4c1a 503d 273a 3abd
000001c0: 9356 0b3c b2f0 12bd e213 fa3d e175 4c3d
000001d0: 3744 73bc 899f b9bc 1e3b f13d 94b1 dd3c
000001e0: e350 d83d e535 ef3d 4ca9 8cbd 420f a03d
000001f0: 7cb1 f53d ae3b 983d 6b8f b53c 2cb3 d83d
00000200: 2946 b1bd 6fcf ca3d 01df 823c 0706 833b
00000210: bbb0 8b3d 7d72 4abd da60 1dbd 0276 293d
00000220: 9e1d 373d 41b4 afbd fcaa d5bc 9942 afbb
00000230: 6483 6bbd 7f93 063e 7ff8 c83d 8bef e1bd
00000240: 38ab 0c3e b9b2 593d 09c8 a3bd 3141 ab3d
00000250: 5d34 983b 3cdb 553c 2a8b 913b 4edc 8c3d
00000260: 35c8 93bb af33 c53d 88c7 ab3d 5433 70bd
00000270: 3d5d ba3d 386d 7e3d 816b 213d f86d 333d
00000280: 06ee 7f3d 8ebf 84bd 1219 cc3d 4b1d 16bd
00000290: c77c b4bd 0776 d53c 41d9 973c 9982 08be
000002a0: 8073 903d 4a48 65bd 0519 c3bd 5e44 863a
000002b0: da02 54bd db56 70bb 1b8a 183e 1c9f 463d
000002c0: 17de 37bd 0071 5ebc 7518 633d fda2 a6bd
000002d0: 0b85 a73d 07f4 993d 90c7 d4bd 46a3 153e
000002e0: 9321 df3c d715 efbd 5ddd 633d 366d 113d
000002f0: ba1b 1a3c fbd5 0a3e ceeb 993d 5c52 fd3c
00000300: 9c5f b83d a825 ce3d 4acc 223d da61 76bb
00000310: 470b a5bc e5d2 993c 5b6a fd3d 6efd 9a3d
00000320: a20a 4a3d b747 533c 1000 c2bc 2568 d2bc
00000330: 965e 5b3d 0065 bf3d ce62 03bd 71d7 ce3c
00000340: 41f8 803d 0710 ce3c 9ec2 9d3d b32f d0bc
00000350: d72b 13bd 5984 15bd be71 893d 4d25 46bd
00000360: d53f 3e3a fcae c93d 4de8 ffbd fdb6 2f3d
00000370: 6d5f 18bd 13eb e2bb 10b0 533b eb6b b63d
00000380: d69b 7fbd d1e5 31bd 41ed a2bc 3128 a93c
00000390: 0850 ab3d b0a2 3a3d 7cc5 a4bd f59e de3d
000003a0: d720 803c 0537 333d f9eb d33c c1eb 323c
000003b0: cc90 93bd 2bbe 253d 3ea2 043d 59f4 573d
000003c0: 774b e03d c566 033e a499 abbd 7660 ba3d
000003d0: c839 52bc a206 8a3d 4398 d13d 3efb c33d
000003e0: d3a6 20bd d801 e5bc 2190 463d d8a7 93bd
000003f0: ec64 30bd 52ae 373d 7e5c 0cbd fea5 c63d
-0.0086670285 -0.011918356 0.01141891 0.1305302 0.032404482 -0.029070698 -0.007869907 0.03367274
-0.021511553 0.06705431 -0.07540137 0.07020851 0.07257411 -0.09130999 0.012619222 0.024271084
0.036313754 0.08766993 0.07077897 -0.058310047 -0.06405095 0.115308225 0.08399047 -0.09870886
-0.013887726 0.07751472 -0.07524059 0.026818518 -0.014351523 0.052682348 -0.0030607597 0.057163883
-0.06819879 -0.015018177 0.09089164 -0.0030498297 0.05889766 -0.045656886 -0.0023395973 0.052196726
-0.01802121 -0.0072454885 0.0013594402 0.05496273 -0.09745663 0.07464119 0.08351441 -0.11751454
0.12267699 0.025204275 0.053031802 -0.011516816 -0.034953143 -0.03963339 0.06738074 -0.008013026
-0.029719936 0.07335519 -0.045444 -0.012922811 -0.008506004 -0.011732593 -0.024175841 -0.01702935
-0.05096395 0.030454308 -0.02267141 -0.0111316275 -0.005713571 -0.034318782 0.108329356 0.07351822
0.111664765 0.03133562 0.015325881 -0.0009932623 0.019949991 -0.061841678 0.07104297 0.031643394
-0.007991928 0.07853823 -0.030345777 -0.074568525 -0.024388937 0.08509337 -0.00091720896 0.03773739
0.008682479 0.03434151 0.025686491 -0.025442798 -0.04582027 0.046783835 0.012233548 -0.09509018
0.03636057 0.03038081 -0.032498814 -0.013995928 0.09905892 0.015122908 0.082620226 0.076513186
-0.055196304 -0.02125823 0.044578627 0.063645296 0.010701081 0.072718784 0.05080633 -0.045465615
0.008504528 -0.035874076 0.122108236 0.049917106 -0.014847807 -0.02265908 0.11778854 0.027062215
0.10562303 0.116802014 -0.06868228 0.0781541 0.11996743 0.07433258 0.022163114 0.10581049
-0.0865596 0.09902846 0.015975477 0.0039985212 0.06820818 -0.04942559 -0.038422443 0.041372307
0.04470598 -0.085793026 -0.026082508 -0.005348515 -0.05749835 0.13142203 0.09813022 -0.11032017
0.1373719 0.05314896 -0.07997138 0.08362044 0.004644914 0.013052758 0.0044416385 0.06877957
-0.0045099505 0.096289985 0.08387667 -0.0586427 0.09099815 0.062115878 0.039409164 0.043806046
0.062482856 -0.06481849 0.09965719 -0.03664903 -0.08812862 0.026057256 0.018536212 -0.13331069
0.0705328 -0.055977143 -0.095262565 0.0010243764 -0.051760532 -0.0036672864 0.14896433 0.048491582
-0.044889536 -0.013576746 0.055443246 -0.08136556 0.08179673 0.07517248 -0.10389626 0.14613065
0.02723769 -0.116740875 0.05563103 0.035504542 0.009406025 0.1355819 0.07515679 0.030923061
0.09002611 0.10065776 0.039745606 -0.0037594945 -0.020146979 0.01877732 0.12373801 0.07567869
0.049326546 0.012895516 -0.02368167 -0.025684426 0.053557 0.09345436 -0.03207665 0.025249215
0.06297351 0.025154127 0.07703136 -0.02541337 -0.03593048 -0.03650317 0.06711148 -0.048375417
0.00072574365 0.09847829 -0.1249548 0.04289912 -0.03720038 -0.0069249957 0.0032300986 0.089073025
-0.062404476 -0.04343206 -0.019888522 0.020649048 0.08364874 0.045565307 -0.0804548 0.108701624
0.01564066 0.043753643 0.025869356 0.010920466 -0.07205352 0.04046456 0.03238129 0.052723262
0.10951894 0.12832172 -0.08378914 0.0910043 -0.012831159 0.06739546 0.1023412 0.09569405
-0.039221596 -0.02795498 0.048477296 -0.07209748 -0.043064997 0.04484398 -0.034267895 0.09699629

lstm.weight_hh_l0 f4 [512, 128]
00000000: 778a c139 e080 43bd f4b1 8239 306f 6a3b
00000010: 5e26 04bd 4e29 84bc 0050 a13b d8d1 a2bd
00000020: 2703 2ebd f70e 8d3d 5b5c 93bd 794f 87bd
00000030: 0a44 b4bd c52b f93d 209c 643c b9e4 4a3d
00000040: b5e2 ef3d 25ad 16bd 05bc bfbd 625e ddbc
00000050: 6d1f e23c ec36 d1bc e467 cabd 49ae c53d
00000060: 6714 773b e590 38bd 75a4 dfbc 127b 53bd
00000070: 296b 41bb 9394 783d 1b6f 98bd 29f3 243d
00000080: 8109 f73c ef2d 9fbd 46f2 b43d 76b0 b3bc
00000090: 4b95 84bd 9990 1fbd e284 c6ba 3a7c 62bd
000000a0: 14b6 d33d 41a6 54bd fbc7 5cbc 6631 3dbc
000000b0: c3cc 0c3d ae12 fbbd beaa 56bd cb6f c43d
000000c0: e785 1c3c 496a afbd 7085 d8bc 3d5c 88bd
000000d0: 36a1 9dbb e41a 393c 1f7c 51bd 4ef3 c53a
000000e0: 04ec 443c ebb6 ab3d 7ce6 e4bc 0d45 1f3d
000000f0: 4ae3 3cbd d71c 47bd effd 5f3d a63d a5bc
00000100: 1b16 f63d ae41 0f3c d797 64bd f643 f53c
00000110: 61c3 6f3d cd69 273d 8ae8 81bd 3906 24bd
00000120: 818a 5a3b 440b ba3d 45cc 82bc f693 0d3c
00000130: 56ea 6abd 8687 e8bd c903 bfbc e36c 333c
00000140: eab5 16bd 9b25 623d 9135 9e3d d577 5e3d
00000150: 418a d6bc 98d9 74bd e480 973c dc59 0fbd
00000160: 3dbd 4c3b ca66 8ebd 5e4b b53d f9b2 4abc
00000170: 8282 613b a971 c33c 4537 973d bae3 8b3d
00000180: 3bde 033d 3dad d33b 7670 5bbd 9943 c03c
00000190: 1b5b 323c 7974 a6bd 2be6 703d d609 2dbd
000001a0: 6b08 443c 8731 0d3e 8ed6 ebbd 91f2 b2bd
000001b0: a8bf 4d3c 5841 d73d dbef dfbc 94b2 2e3c
000001c0: 54f1 f0bc ef9c 8dbd 8562 9ebd 279b 843c
000001d0: f6ed 263c 25c5 acbd dcd3 06bb 7d71 80bd
000001e0: 7333 a9bc ea1e 3a3d 4442 46bd 9969 fdbc
000001f0: 96d5 513d c7be d1ba c6e0 86bd b106 203d
00000200: 0a10 a1bc 5605 893d 6459 8a3c 7513 503d
00000210: 3c0a 34bd 38ae 13bd 6636 993d db18 9fbd
00000220: 26d3 a93c 5786 44bd ae01 3dbd a8c8 c3bd
00000230: 2e5a a5bc bfac a13d dbd8 85bc 91d2 243d
00000240: 114d 74bd bc51 9cbd 1b74 743a f3e6 c1ba
00000250: c08a 5cbd 7713 af3c 5a71 72bd 5a96 833c
00000260: 1cec 343d 572b 833d 3303 c0bd 288f a0bd
00000270: bf70 013d 37e5 a5ba 6f90 6cbd 8b47 353d
00000280: d3e5 753d 9e77 2a3d 0238 673d 07fd 67bd
00000290: aa85 873d a024 07be 8c19 703d 3521 21bc
000002a0: 14c7 ed3d 0cb6 4cbd 7e49 77bb 36db 483d
000002b0: 7346 9a3d cb3b b7bb 2495 313d 2d91 4c3d
000002c0: 83f4 3c3c 5a22 c3bd 992f 193d e735 c43d
000002d0: 61cf 8cbd f66d 283d c970 6fbd 279c ff3c
000002e0: c3f2 bd3b 5e0c 23bd 612d c2bd 2234 beba
000002f0: 0043 a03c 8a23 343d 50f5 8d3d 2633 d13c
00000300: 32db de3d b923 75bc 63ca 9fbd ec33 d0bc
00000310: 8482 843d da1a 95bd a080 403d f3f6 0c3c
00000320: 3e99 1c3c 5d60 44bd 77e9 6fbd 02f6 b1bd
00000330: c8a8 3fbd b187 1cbd 26a4 b23c 7a5f babc
00000340: bfff b83c 1c8e 3abd 7f1d 5b3d 7e8c 63bd
00000350: dd57 993d 41f4 92bd 868c 4abd 1e44 393d
00000360: eaca 68bd 62d2 aebd cda6 973d 13eb a33c
00000370: c9b4 d13c 89c4 c73d b848 9dbd ed6b fdbc
00000380: 2a81 33bc 6584 8bbd 4090 873d 28a7 903d
00000390: d085 d13d 403c 92bd 0f3d e1bc 5f45 0ebd
000003a0: 8e6c 383d 731c e23d 05b1 d6bd 696c b53c
000003b0: 5b90 f6bc 805e c03c 7035 71bd 419b 21bd
000003c0: f369 ba3d 090d 253d 59b7 613b 6789 0b3c
000003d0: 2d36 7cbd 39e5 b3bd f2fb 263d 744e b038
000003e0: 1690 12bd 0a69 8c3c fe5f f1bc 5e5d 79bd
000003f0: e975 06bd 2e68 873d 8a0d 903d 6ce8 04bd
0.00036914993 -0.047730327 0.00024928118 0.003577184 -0.032263152 -0.016132977 0.004922867 -0.07950181
-0.042483475 0.0688762 -0.0719535 -0.06606955 -0.0880204 0.121665515 0.013953239 0.049534533
0.11713163 -0.036786217 -0.09362034 -0.027022544 0.027602876 -0.025538884 -0.09883097 0.09652383
0.003770137 -0.045060057 -0.027300099 -0.05163104 -0.0029513335 0.060688566 -0.07443067 0.040270958
0.030155899 -0.07772433 0.088352725 -0.02193473 -0.06473788 -0.03895626 -0.0015145803 -0.055294253
0.10337463 -0.051916365 -0.013475413 -0.011547422 0.034374963 -0.12259422 -0.052408926 0.09591635
0.009553409 -0.08565194 -0.026430815 -0.06658218 -0.0048104776 0.011297915 -0.05114376 0.0015102418
0.012019161 0.08384498 -0.027941935 0.03888421 -0.046115197 -0.04861149 0.05468553 -0.020170998
0.12015935 0.008743687 -0.05580887 0.029939633 0.058535937 0.040872384 -0.063431814 -0.040044997
0.0033346715 0.0908418 -0.015966544 0.008641234 -0.057352386 -0.11353974 -0.023317235 0.010951254
-0.03679458 0.055211645 0.07725061 0.0543135 -0.026188971 -0.059777826 0.018494077 -0.034997806
0.0031240724 -0.06953199 0.08852266 -0.012371772 0.0034410064 0.023857908 0.07383589 0.06830545
0.032194357 0.0064598606 -0.053574048 0.023469733 0.010885979 -0.08127684 0.058813255 -0.04224571
0.011964898 0.13788424 -0.115155324 -0.08737672 0.012557901 0.1051051 -0.027336052 0.0106626935
-0.02941195 -0.06914698 -0.07733635 0.016187264 0.01018857 -0.0843604 -0.0020573055 -0.06271646
-0.020654416 0.04543964 -0.04840304 -0.030934142 0.051229082 -0.0016002291 -0.06585841 0.03906888
-0.019660968 0.06690471 0.016888328 0.050799806 -0.043955073 -0.03605482 0.07481079 -0.07768413
0.020730566 -0.04797968 -0.04614418 -0.095597565 -0.020184603 0.07894277 -0.016338756 0.040239874
-0.05964381 -0.07632777 0.00093251624 -0.001479356 -0.05384326 0.021371586 -0.05919013 0.016062904
0.044170484 0.06404751 -0.0937561 -0.07839805 0.031601664 -0.0012656812 -0.05775493 0.04425768
0.06003363 0.041617982 0.056449898 -0.05663779 0.06617291 -0.13197565 0.058618113 -0.009834577
0.11610237 -0.0499783 -0.0037733014 0.04903718 0.07532968 -0.0055918447 0.043355122 0.049943138
0.0115329055 -0.095280364 0.03739891 0.095805936 -0.06875492 0.041120492 -0.05845717 0.031202389
0.0057967617 -0.039806716 -0.094813116 -0.0014511386 0.019563198 0.043979205 0.06931555 0.025537085
0.10881652 -0.01496213 -0.07802274 -0.025415383 0.064702064 -0.07280512 0.046997666 0.008603799
0.00955802 -0.04794346 -0.05857226 -0.086895004 -0.04679182 -0.038215343 0.021806788 -0.022750605
0.022582887 -0.045545682 0.053494927 -0.055553906 0.07487462 -0.07175494 -0.04945042 0.045230977
-0.05683414 -0.08536221 0.074048616 0.020009553 0.0255989 0.09754283 -0.076798856 -0.030935252
-0.010956088 -0.06812362 0.066193104 0.070631325 0.10230601 -0.07140398 -0.027494935 -0.034734126
0.0450254 0.110405825 -0.104829825 0.02214642 -0.03009813 0.023482561 -0.058888853 -0.039454702
0.091022395 0.040295634 0.003444156 0.008516646 -0.061575104 -0.08783955 0.040767618 8.406947e-05
-0.035781942 0.01713993 -0.029464718 -0.060880058 -0.03282729 0.066116676 0.07033832 -0.032448217

lstm.bias_ih_l0 f4 [512]
00000000: 2df8 c23d dce8 6fbd e79f e33d bdd3 db3c
00000010: 219e ac3d 4f5c ac3b 7f5d ab3c 63cb 233d
00000020: 8cc9 35bc a610 8b3c 68cd 7e3c 9e5a 8f3d
00000030: b70d 42bd cdfd afbd a435 883c 57f5 c53d
00000040: 54f1 283e 68c3 8a3d 4d06 a73d 0666 90bd
00000050: ac21 313d 9af2 be3b 7030 6dbd e3ba d9bb
00000060: 8d98 eabc d55e f2bb 437c a4bd 72e5 e53c
00000070: 0243 39bd 192c 243d 0697 79ba b716 13bd
00000080: a594 4a3d fa40 85bc 2f0e 8c3d c6a9 313d
00000090: 1fe7 babc 4da5 fe3d 393c 003d af42 d73c
000000a0: 0685 b83d 85de 6f3d f6f5 ab3d 4c22 34bd
000000b0: 44bc 13bd 4dcb 943d c46f d33d b220 ce3c
000000c0: b8a6 553d c721 b2bd 5ad6 353d 91d1 cc3d
000000d0: d9d9 cbbc 8d50 d1bb a6b5 8e3d 431e 4ebc
000000e0: 9650 d33d 53d6 87bd 38fb 6abc 7119 363d
000000f0: 44df b13d 50fa 42bd 07cd 35bd 096f 76bc
00000100: 6d56 1a3e f0c7 db3d 2795 3abd 1ed3 e0ba
00000110: 05da ea3c c807 c83d c4d3 80bd 9def 6abd
00000120: 109a 7ebc 8e52 32bd f4da d03c 5a91 cb3b
00000130: 5b1a cc3d ab48 bd3d 5cf8 29bc ce6c 013d
00000140: 5dab 763d 2405 a53d c6a2 b43c b62c 1e3e
00000150: 7f61 f73c 300a 153d 3d97 863d c324 f93c
00000160: 2e8e a43d 09a2 db3d 23c4 dd3b 67e0 82bd
00000170: 35d6 9bbc ac57 b9bd b2fa 563d 23a7 21bd
00000180: b196 923b 60f9 113e 73c0 f43d f216 29bd
00000190: 470c 5ebd 16fa d43d 3ba7 06bd 0062 04bd
000001a0: 25ed 913d 30c4 6fba ec0e d03c 4cc4 16bd
000001b0: dba2 ab3d d3ba 08bd af1f 693d f89a 1e3e
000001c0: a36a d13b f801 9e3b 9214 ea3d 3c3b 143e
000001d0: 1d74 ea3d 1090 cdbc 64c6 6cbd 8e6d 7e3d
000001e0: a027 a13b 4284 d63d afee 683d 8872 f6bc
000001f0: 1dff c1bc db3e a53d 3acd ce3d 44f3 163d
00000200: 3d50 b83d 18f7 b23d ad58 bb3d 18e3 373c
00000210: 5de2 713d b7f2 7b3d 40a8 353d 02fb 443d
00000220: e492 70bb 5c12 61bd 1148 1cbc 0d5d 34bd
00000230: dfff 753d c828 8abd 84ba 0fbd a9b1 2e3c
00000240: 1e31 b43d 4089 9a3c e334 743d e482 a23c
00000250: b903 5f3c 7f0c b93c d2de 8c3c 9341 7dbc
00000260: 5d0c eb3d ec74 a1bd 3e48 0ebc 415b 7e3d
00000270: c414 033e b6a2 27bd 40a4 fabc c239 ca3c
00000280: 4bb3 763c 7874 ab3d f49d 173d d520 c2bc
00000290: 3645 93bc 78a4 0fbd 7869 9ebc 5754 183d
000002a0: 9c7a 47bd 49c7 3cbd 761b 763d 185d c93d
000002b0: 44e5 f6bc fa5a 013e 2a1c 3b3e d86c a83d
000002c0: 6b33 b43c 4ab6 ad3d b12b 2fbd c00d 063d
000002d0: bdab 91bc 230f e83c 4af5 52bd 3147 9a3d
000002e0: 3caf b03d 08fb 893d b80d 483d 891d c43d
000002f0: c462 64bc 99bc f0bc 0ed5 bd3d a0de 5ebd
00000300: 7fcd bbbc 806d 8ebc b753 aebc 2eef 663d
00000310: 4446 eebc c3f6 c13d 9588 37bd b645 913d
00000320: 92a9 86ba dded a93d 1e1a 453d e379 1f3d
00000330: f780 da3d ccea 7bbb 287a 473d cafb 103d
00000340: b00b 8cbc 13d3 043e 5576 183d 322b f33d
00000350: 6996 e33c c6d2 adbc 4334 063d 36ce 933d
00000360: 2d05 983d cdcf 29bd cfd8 193d 3dde 983d
00000370: a0a2 823d e48c 463d 690e 89bc 06e0 8ebd
00000380: 72af ab3d 84b8 d73d be13 1dbd f29a 35bd
00000390: 1178 af3d 9c01 ac3c aedd 77bd 3ddb 45bd
000003a0: 70da 06ba 6493 653d 59f1 413d b11f 8a3d
000003b0: 3801 d23d c5ee a4bc 9e67 fe3d 508c 073d
000003c0: 1e8a bf3c 7c4a e23d ecf2 36bd f3cc d43c
000003d0: 706c b53d 1c52 bfbb e7c3 3c3d f3b1 6abc
000003e0: 6616 553c 678d ef3d 63d2 f43d f66f c53c
000003f0: 34d5 653d 808d e83d a427 703c 363d 6e3c
0.09519992 -0.05857168 0.11114483 0.026834363 0.08428598 0.0052600275 0.020918606 0.039988887
-0.011095416 0.016975712 0.015551902 0.06999706 -0.04737636 -0.085933305 0.01662714 0.096659355
0.1649831 0.06775552 0.08155499 -0.070507094 0.043245003 0.00582726 -0.05790752 -0.006644593
-0.028637195 -0.0073965588 -0.080315135 0.02806351 -0.04522992 0.040081117 -0.00095211004 -0.035910334
0.049458165 -0.016266335 0.06838643 0.0433748 -0.022815285 0.12433872 0.031307433 0.026276914
0.09009747 0.05856182 0.08396523 -0.04397802 -0.036068216 0.07265339 0.10324052 0.025162075
0.05216095 -0.08697849 0.044393875 0.10000909 -0.024884151 -0.006387776 0.069682404 -0.012580457
0.10318105 -0.06632676 -0.014342122 0.044457857 0.08685163 -0.047601998 -0.044384982 -0.015041121
0.15072031 0.107314944 -0.0455524 -0.0017152762 0.028668413 0.09767109 -0.06290391 -0.05735742
-0.015539661 -0.04353576 0.02549503 0.0062123956 0.099659644 0.09242376 -0.010374155 0.031597905
0.06022202 0.08057621 0.022050273 0.15446743 0.030197857 0.03638667 0.06571815 0.030413037
0.08034931 0.10724265 0.006767766 -0.063904576 -0.01902304 -0.09049925 0.052485175 -0.039466035
0.00447353 0.14255285 0.11950769 -0.041281648 -0.054210927 0.103992626 -0.032874327 -0.032320023
0.0712531 -0.00091463607 0.02539774 -0.036808297 0.083806716 -0.033381294 0.05691498 0.15488803
0.006390886 0.004822012 0.11429705 0.14475721 0.11447928 -0.025093108 -0.057806388 0.0621162
0.0049180537 0.10474445 0.05686825 -0.03008391 -0.023681218 0.08068629 0.100977376 0.03685309
0.08999679 0.08738536 0.09147773 0.011223577 0.059053767 0.061510768 0.04434991 0.048090942
-0.0036708647 -0.05494915 -0.009538666 -0.044034053 0.06005847 -0.0674606 -0.035089985 0.010662475
0.08798431 0.018864274 0.05962075 0.019837804 0.013611727 0.022588966 0.017196093 -0.015457529
0.114769675 -0.07883629 -0.008684216 0.062098745 0.1280089 -0.040926658 -0.030595899 0.024685744
0.015057395 0.08371824 0.03701587 -0.023697296 -0.017977338 -0.03506896 -0.0193374 0.037189808
-0.048700914 -0.04608849 0.060084783 0.09832209 -0.03013862 0.12632361 0.18272462 0.08223885
0.021997174 0.084820345 -0.042766277 0.032727957 -0.017782087 0.02832753 -0.051503457 0.0753311
0.08627173 0.067373335 0.04884121 0.09575946 -0.013939563 -0.029386805 0.092691526 -0.05441153
-0.022925137 -0.017386198 -0.021280153 0.056380443 -0.02908624 0.09470894 -0.04480799 0.070933744
-0.0010273925 0.08297322 0.04812061 0.0389346 0.10669129 -0.003843951 0.04870048 0.035396375
-0.017095417 0.12971143 0.037222225 0.11873473 0.027781682 -0.021218669 0.032764684 0.07217066
0.07422862 -0.04145794 0.03756028 0.074642636 0.063786745 0.048474208 -0.016730504 -0.06976323
0.08383073 0.105332404 -0.038348906 -0.04433722 0.08567823 0.020996861 -0.060514145 -0.048304785
-0.0005144244 0.056048766 0.047349308 0.06744326 0.10254139 -0.020133385 0.12422107 0.033092797
0.02338129 0.11049363 -0.044665262 0.025976634 0.088585734 -0.0058386456 0.046085265 -0.014324653
0.0130058285 0.11696892 0.119541906 0.024101239 0.05611153 0.11355114 0.014657889 0.014540961

lstm.bias_hh_l0 f4 [512]
00000000: 0663 583d 1dc1 033d 427e 1d3d 6893 d83c
00000010: cea3 39bb d2b0 083c de4c 803d 3ede ac3d
00000020: 759e 8e3d af76 9c3d 10c6 da3c 3e45 3a3d
00000030: 510f 3e3d d0fe 74bb 45af 833d bd03 95bd
00000040: b91d 073e 4d12 923c eaaf 103c 6ddb b43d
00000050: e15d 96bc b262 a3bc 7998 923d a05c a3b9
00000060: 26a7 f03c 4679 79bd d700 003c aef4 e23d
00000070: e626 e8bc e218 77bc 7cf5 463c 505d 5e3d
00000080: 1cda 2d3d d141 dd3d e0e5 7b3d e5cd 0cbd
00000090: e17d c3bd 25fb 0a3d 7809 8dbb 6061 a13c
000000a0: 6f6b 70bd 5afa 8abd 061b e1bc 37a3 963c
000000b0: dacf 8c3b 8d29 0d3e af71 a13d c810 bbbc
000000c0: 1c77 ee3d da72 013d 8b8e 4a3d f7d7 0bbd
000000d0: b677 8bbd 4011 cbbc d8b3 d23b a522 3f3d
000000e0: b856 2b3d 1a6c 7d3c 12e8 3d3d 36b7 423d
000000f0: d502 dd3b 4b89 54bd 5737 40bd d8fd 49bd
00000100: f6b6 173d 44d8 7b3c 1d27 a83d 522e 68bd
00000110: 3f8d 41bd 87ce f03d 7849 413a 7c1b 14bd
00000120: 2f75 ba3d c61b d5ba 8a4b 9b3d d1bf a43d
00000130: f499 ce3d 26c9 ea3d 70bf 1cbd 7ceb d03d
00000140: 2096 153d a9d0 bc3d ec37 bb3d 7dcc d13c
00000150: 3455 a53d cfb0 b53d c46f 143d 4c1f 83bc
00000160: 58b5 833d 7f20 b13d 686c 24bd c088 8b3b
00000170: 19ce 543c 913c 14bd 025e 8bbd 8af3 873d
00000180: bc58 abbd e459 30bc f395 e93d fdb4 1d3d
00000190: 314c 9a3d ba21 573d b6a5 053c 58e7 01ba
000001a0: bc8e 883d 1f25 aa3d ba3f 2e3e 9548 613d
000001b0: fd40 d53d cf1f 40bd b5dd 933d 995d f13d
000001c0: 2d1d 81bd 68c2 003e f79d 98bc 69af 333e
000001d0: 67d7 893d 0415 943c 6bab d03c d410 cd3d
000001e0: bded 45bd fa9b a53d 09ee d73d aeb2 6a3d
000001f0: 3d28 49bb 801b 423c eee2 2f3d 86c9 9d3c
00000200: 1738 973d dec5 9e3d b2c3 e93a 9b0d a0bc
00000210: 3015 f43d b104 08bc 134d 5cbd 4103 57bc
00000220: c1a7 913d 02a1 053d fae2 963d e8a9 c13d
00000230: 4b2d f03b ee8f c03d 0572 e13c eef5 b2bc
00000240: 0ecf 453d 9e45 2f3c 3201 673d 4d49 e73d
00000250: cfba 983d 9eab 863d fafc 083e 1b2c b23d
00000260: fdde a4bc 2304 453d 9de0 09bd 5167 d5bc
00000270: 5d38 f83d 3d2e ea3d f69d 41bc 06a9 88bc
00000280: 3001 e73d 89cd a13d 0fd8 ce3d 383e d03d
00000290: e32f 883c c783 053e 712b c23d d507 8e3d
000002a0: ca36 8b3c db44 c23d eccd 913d 8e8b 613d
000002b0: 7583 c93c 074b 023e 9245 1d3e bf58 033e
000002c0: 073e 50bd 415c ecbc 2f1a 31bc 109b cf3d
000002d0: 2072 a73c ab8c 1c3d c1cd ddbc 1b6b bf3d
000002e0: 2b15 bf3d adef 873d 8de5 463d 67d4 2abd
000002f0: 63b2 e33d 9086 8dbb 57a6 a13d 824c 36bd
00000300: 3624 783d 602a cabc 7cff 473c 5ea2 073d
00000310: 7473 b73d e8b7 56bc e398 bd3d 4150 193d
00000320: 4950 463b 654f 223d 08bb 46bd 50ee ab3d
00000330: 628f ad3d ce53 993d 983c 7a3d dcfa 633d
00000340: f69c 7f3d c065 923d 5a2b 933c 8ca1 f9b9
00000350: 131a cd3b c398 6c3d 1d8b 03bd 565d d13a
00000360: b43a fb3d 7823 2e3d 91eb 6c3d a9f2 39bd
00000370: 2567 ba3d 5ebf 893d 8046 78bc 0007 63bd
00000380: cd79 e53c 6f72 093e 6736 f03c a56d a23c
00000390: 294d d53d 446a 91bd ed27 763d ebb8 0dbd
000003a0: dacd 943b 3ce9 2c3d cd3a d73d 1606 c33c
000003b0: c4eb d8bc 0b6c 793d 4044 2a3d 796d a4bb
000003c0: 4254 13bd 0d54 e53c cd51 1cbd 6446 f6bc
000003d0: 305f d33d 4f54 00ba 168d 953d 41b7 46bd
000003e0: c47a 8fbd d8cc db3d 4090 a23d 163e 82bc
000003f0: fc64 8cbd fab5 d33d c314 8d3d 7cdf 0a3e
0.05282881 0.03216659 0.038450487 0.026437476 -0.0028326395 0.0083429385 0.06264661 0.08440827
0.06963817 0.076398246 0.026705772 0.04547619 0.046401326 -0.0037383325 0.064299144 -0.07276104
0.13194932 0.017830992 0.008831004 0.08830915 -0.018355312 -0.019944523 0.07157988 -0.00031158794
0.029376578 -0.06090667 0.0078127 0.11081825 -0.02833886 -0.015081616 0.012143489 0.05428821
0.042444333 0.10803569 0.061498523 -0.034376044 -0.09545494 0.033930916 -0.0043041073 0.019699752
-0.058696207 -0.06786032 -0.027478706 0.018388374 0.004297239 0.13785382 0.078830115 -0.02283515
0.11643812 0.03160367 0.049452346 -0.034141507 -0.068099424 -0.024788499 0.0064301305 0.0466639
0.04183075 0.015467668 0.046363898 0.047538005 0.0067447224 -0.051888745 -0.046927776 -0.04931435
0.03703972 0.015371386 0.08210585 -0.0566848 -0.047253843 0.11758142 0.00073733134 -0.036159024
0.09104382 -0.0016258887 0.07582767 0.080443986 0.10087958 0.11464147 -0.038268507 0.10201165
0.036520123 0.09219486 0.091415256 0.025610203 0.08072892 0.08871614 0.0362394 -0.016006134
0.06431073 0.08648776 -0.040142447 0.004258245 0.012988591 -0.036190573 -0.0680504 0.06638248
-0.08366534 -0.010763619 0.11405554 0.038502682 0.075340636 0.0525224 0.008157184 -0.00049554324
0.066678494 0.083078615 0.17016497 0.05500086 0.10412786 -0.046905335 0.07220022 0.117854305
-0.06304393 0.1257416 -0.018630011 0.17547382 0.06730538 0.018076427 0.025472363 0.10012975
-0.048322428 0.08086391 0.105434485 0.05729931 -0.003069415 0.011847377 0.042941026 0.019261133
0.07383745 0.07752584 0.0017834811 -0.019537738 0.11918104 -0.0083019 -0.05378444 -0.013123334
0.07112075 0.032624252 0.07367511 0.09456235 0.007329618 0.094024524 0.027520189 -0.021845784
0.048293166 0.01069775 0.056397624 0.11293278 0.07457506 0.06575702 0.13377753 0.08699819
-0.02012586 0.04809965 -0.033661474 -0.026050242 0.121201254 0.114346005 -0.011817446 -0.01668216
0.112795234 0.07900531 0.10099804 0.10168117 0.016624397 0.1303855 0.09480942 0.069350876
0.016993899 0.094857894 0.071193546 0.05506473 0.024598816 0.12723933 0.1535857 0.12826823
-0.050840404 -0.028852584 -0.010809465 0.10136998 0.020440161 0.03822009 -0.02707565 0.093466006
0.09330209 0.066375114 0.04855876 -0.04170647 0.11118009 -0.0043190196 0.07893055 -0.044506557
0.06058141 -0.02467841 0.012206908 0.03311383 0.08957568 -0.01310537 0.092576765 0.03743005
0.0030260256 0.039626498 -0.04851821 0.08395064 0.08474614 0.074866876 0.061092943 0.05565916
0.06240555 0.071483135 0.017965008 -0.00047613343 0.006259212 0.057762872 -0.03211509 0.0015973251
0.12267056 0.042514294 0.05784184 -0.045397434 0.091017045 0.067259535 -0.015153527 -0.055426598
0.02801218 0.13422559 0.029322816 0.019827673 0.10415108 -0.07100347 0.06009667 -0.03460018
0.004541141 0.042214617 0.10509262 0.023806613 -0.02647961 0.060894053 0.041568995 -0.005017933
-0.035969026 0.02799418 -0.03816395 -0.030062862 0.1032089 -0.00048953755 0.07302301 -0.04851461
-0.070058376 0.1073243 0.0793767 -0.015898746 -0.06855199 0.10337444 0.068887256 0.13561815

fc.weight f4 [7, 128]
00000000: 7b4a aabd c6e1 8ebd bab1 bcb7 60df adbd
00000010: 5f88 4d3c 3b19 523d 91a9 e53c fca8 9c3c
00000020: 4ed1 b3bd baf1 b6bd 0705 de3d ad01 20bd
00000030: 21b8 b8bc 94f6 3fbd 7652 683d d601 dc3d
00000040: c915 1e3d 411e df3d 090b e8bd dea7 ecbc
00000050: a000 fb3c ca27 27bc 2309 583d bc35 903b
00000060: 2cff 3c3d e091 74bd 1453 bd3c 2a97 83bd
00000070: 6038 bb3d 3a73 603d 2927 6abd cf2e 1c3d
00000080: 8ed5 0d3c 0d1b cabd f2d8 6b3d 0bb6 bc3b
00000090: 2e0a bc3d 0626 623d ecc8 c23b b80f ecbd
000000a0: d0a3 a63d 3bfb 303d fe6d ba3c d5c5 c0bd
000000b0: ae53 55bd 271d cd3c 9b13 d93d 6095 7bbd
000000c0: 106f 8b3d 7d08 863c 9353 8bbb 0e1a d7bd
000000d0: 74d7 3abd 4993 f63c 6526 a1bd 2ab2 ed3c
000000e0: d8dc 9abd 1607 25bd 9fab 04bb 51f4 0bbd
000000f0: 307c 6cbd 86ba a2bd c4ce e3bc 5740 393d
00000100: 00e9 df3d 8530 c4bd 5099 673c 1159 57bd
00000110: 5918 903d 39df c9bd 3c5f e4bd 7a41 673d
00000120: ada7 2f3d e9d0 753d bf0b 83bc abb7 7ebd
00000130: 614c 74bd 1d0f 36bc 96e8 683c 4e04 b6bd
00000140: eb52 a8bc 9b9f 9fbd a3b6 7abd 4b77 e0bd
00000150: 6f39 f1bc aedd a2bd b98e 82bb e857 dcbd
00000160: b362 dc3d 210d 393d 35e2 b5bc 0bca 88bd
00000170: 7e08 ed3d 1acc dcbd fe3a 0abd 770d 4cbc
00000180: 593a debd d861 0fbb aed5 32bd e6d5 e13d
00000190: c2bb 33bd 4429 10bd 6988 153d a0ce 9a3d
000001a0: 0fa5 513d c02f ee3d 37f1 653d e579 55bd
000001b0: 31f0 56bc a01d 8c3d 07f1 7f3d 41fb b3bc
000001c0: ff92 ebbd b21d 9e3d 2961 003c 6de2 44bd
000001d0: ab53 3abd b7be 923d 88f3 b73c a018 dcbd
000001e0: df50 b73d 5f0c 07bd f682 8a3c 6533 c33c
000001f0: 1e76 b83d 5fc7 88bd a5bd c6bd 1a02 453d
00000200: 1feb 893b 6145 6bbb 59e8 81bd 6ce0 02bd
00000210: 0c9c 3dbd c447 613b f46c 8fbd 608a 053d
00000220: 2e9e ab3c 362c ad3d eb18 963d ff33 c3bd
00000230: 5a14 c33d db24 9cbd 52f8 ba3d 35c0 603c
00000240: 2d57 f93b f1dc a83d 5a35 b43c 50ef cdbb
00000250: 981e 76bd 18b8 803d c7d5 c4bc 1195 a5bc
00000260: 32be 9fbd 37ee 323d fa9c 9e3d 9610 a1bd
00000270: e42f b53d 1622 d23d 9943 5fbd 545c 0a3e
00000280: 2990 9fbb 81d1 ee3c 64c1 893d 5e05 c9bd
00000290: 2e1a 9d3d 8c8c 07be 86dd c33d 785a 19bd
000002a0: f21a d63c 0cc8 c5bd 67be 93bc b8ee 2abd
000002b0: 44a7 7c3d beb4 d5bc 13f7 e0bd e9fb 0ebd
000002c0: fccb 453d b26f 953d a65f 3cbc fa1a 87bb
000002d0: aa20 33bc 4dd0 31be de4e 8e3d e06c 653d
000002e0: 5ed7 8c3d c474 dbbd 9725 f33d 4ce7 9bbd
000002f0: 4580 aabc 5258 193c 91dd 8e3d 6020 8d3d
00000300: cbd6 123c b035 99bd cb4d 08be 63eb c03d
00000310: 5d81 b3bc 73a7 6fbd cc84 fdbc 193c c83d
00000320: 58f8 cfbb 3e07 7ebd 9c34 923d bcdf 813d
00000330: 785a bdbd e938 63bd e66a 4e3d 0674 abbd
00000340: 0842 50bd cd5c cc3d aca5 243d 239d ea3c
00000350: 895b c9bd 6f3c d8bd 8d26 4fbd 0061 9cbc
00000360: a38a df3d f9f2 9bbc c1e1 003d c5a4 e43c
00000370: 7f39 943d fa97 e03c 03ae f4bd eabb 3abd
00000380: d0de b9bc e1d8 57bd 7795 b6bd 9c77 9e3b
00000390: f27d d83c eb29 04bd b957 72bd 26f4 1e3d
000003a0: 674c c73d 43f1 d23d 11d6 f7bc e48d 2b3d
000003b0: 356d 0cbe d656 9cbd 830f 03bb bce8 1c3e
000003c0: 648d 4b3c f74a 433c 41f9 7cbd a359 5dba
000003d0: 9d8e 12bd 7cbd e53d 5f07 9abc 3948 a0bd
000003e0: 4254 8d3d f847 36bd f3fe 5dbd 748a aa3b
000003f0: 794f 613d 97f5 093e 3d9d 97bd 0bcf 4c3d
-0.08314987 -0.069766566 -2.2494107e-05 -0.08489871 0.01254472 0.051293593 0.028034957 0.019123547
-0.08780156 -0.089328244 0.10840803 -0.0390641 -0.022548737 -0.046866015 0.056719266 0.10742538
0.038594995 0.10894442 -0.1133023 -0.028888639 0.030639946 -0.010202358 0.05274309 0.004400937
0.04614179 -0.05970943 0.023110904 -0.06425317 0.09141612 0.05479739 -0.057166252 0.038130578
0.008656872 -0.09868441 0.057579942 0.005759006 0.09181629 0.055212043 0.005944362 -0.115264356
0.081367135 0.043208342 0.022757526 -0.094127335 -0.052081756 0.025038315 0.105994426 -0.061421752
0.06808293 0.01636147 -0.004251906 -0.105030164 -0.04561563 0.030099528 -0.07868651 0.02901562
-0.07561654 -0.04028996 -0.0020243896 -0.034168545 -0.057735622 -0.07945733 -0.027808554 0.045227375
0.10933113 -0.09579567 0.014135674 -0.052575175 0.07035894 -0.098570295 -0.11150977 0.056458928
0.042884517 0.060013685 -0.015996812 -0.06218688 -0.059643153 -0.011112002 0.014215609 -0.0888754
-0.02054735 -0.07794114 -0.061209332 -0.10960253 -0.029446332 -0.07952438 -0.003984299 -0.10758954
0.10761013 0.045178536 -0.02220259 -0.06679162 0.115738854 -0.10781117 -0.033747666 -0.012454382
-0.10850973 -0.0021878388 -0.043660812 0.11027126 -0.04388023 -0.035195604 0.036507044 0.07558942
0.051182803 0.11630201 0.056138244 -0.0521182 -0.0131187895 0.06841588 0.06248572 -0.021970393
-0.11502647 0.07720508 0.007835665 -0.0480675 -0.04548995 0.07165282 0.022454992 -0.10746884
0.08950972 -0.032970782 0.01690815 0.023828218 0.09006904 -0.06678652 -0.097041406 0.048097707
0.004208937 -0.0035899507 -0.06343145 -0.031952307 -0.046291396 0.003437505 -0.07003203 0.032602668
0.02094945 0.08455698 0.073289715 -0.09531402 0.09525366 -0.07624217 0.091293946 0.013717701
0.007609269 0.08245266 0.021998096 -0.006284632 -0.06008777 0.06285113 -0.024027718 -0.020212682
-0.07799949 0.04368421 0.07744785 -0.07864492 0.08847025 0.102604076 -0.054507826 0.13511783
-0.00486948 0.029152634 0.067263395 -0.09815477 0.07671009 -0.13237208 0.095637366 -0.037439793
0.026135895 -0.096572965 -0.018035127 -0.041731566 0.061682954 -0.026087161 -0.10984626 -0.03490821
0.048290238 0.07296695 -0.011497414 -0.004123089 -0.010933081 -0.17364617 0.069486365 0.056012034
0.068770155 -0.10715631 0.11872404 -0.07612476 -0.020813117 0.009359436 0.06975854 0.06890941
0.008962343 -0.07480943 -0.13310926 0.094198965 -0.021912271 -0.0585093 -0.030947112 0.09777088
-0.0063467436 -0.062018625 0.07138941 0.06341502 -0.09245771 -0.055474196 0.050394915 -0.08371739
-0.050844222 0.09978638 0.04019706 0.028639382 -0.09831912 -0.10558402 -0.050573874 -0.019089222
0.10915115 -0.019036757 0.031465296 0.0279106 0.07237529 0.027416218 -0.119472526 -0.045589365
-0.022689253 -0.052697066 -0.08915227 0.004836036 0.026427243 -0.03226654 -0.05916569 0.038807057
0.097313695 0.10299923 -0.030253442 0.041883364 -0.13713534 -0.0763375 -0.001999826 0.15323156
0.012423847 0.0119197285 -0.061761145 -0.0008443838 -0.035780538 0.11217782 -0.018802343 -0.078262754
0.069008365 -0.04450223 -0.054198217 0.005204493 0.05500743 0.13472591 -0.07403038 0.05000214

fc.bias f4 [7]
00000000: e082 613d f1a0 96bd dcde dc3d f0d5 24bc
00000010: 5746 c83d 29c4 383d 7900 88bc
0.055056453 -0.07354916 0.107846946 -0.010060772 0.09779041 0.045108948 -0.016601788
